src/generator_trained_model_gpu.pth (torch, 159013 bytes, 24 tensors)

blocks.0.layers.0.layers.2.weight f4 [32, 64, 3, 3]
-0.23910707 -0.39596382 -0.21368508 -0.017629595 -0.0069773127 0.030076385 0.20746414 0.40859675
0.15627345 -0.2185247 -0.13991897 -0.054066937 0.013879042 0.032483168 -0.002656743 0.17405488
0.11786879 0.03654378 0.30815595 0.034849532 0.15009561 -0.01755128 0.030183092 0.016791731
-0.25108778 -0.08217253 -0.18116651 -0.28306186 0.14899191 -0.07332084 -0.028665034 0.04238114
-0.013797161 0.30784026 -0.14861913 0.07615319 -0.07643853 -0.07553106 -0.098244414 0.03799427
-0.019457936 -0.06020541 0.029735597 0.1029592 0.15830229 -0.37750545 0.044510685 -0.06576949
0.01055348 -0.023244193 0.07578732 0.34761184 -0.035039753 0.068381734 0.050893802 -0.15736605
-0.12286597 0.012824193 0.018136838 -0.059879113 -0.05375176 0.13488244 0.18508899 -0.07496007
0.2472205 0.19030154 0.012239776 0.04981196 0.028639235 0.00040970996 -0.25318986 -0.13327777
-0.017330222 0.26083854 0.1920976 -0.011436898 0.034885477 -0.010190396 -0.037828673 -0.24857707
-0.19284606 0.25110832 -0.059511732 -0.12814641 -0.0025470366 0.024091307 0.037315406 -0.2942808
0.06474356 0.09203573 -0.32319948 0.30737507 -0.043725926 0.022565737 -0.0002897809 -0.015741045
0.2580648 -0.33776504 0.06606275 0.05691044 0.17628337 -0.06573412 0.016632114 0.015420551
0.014419426 -0.05244989 -0.14897518 0.04327757 -0.027778717 0.08548078 -0.048319653 0.051282026
-0.04905671 0.01712801 0.028663084 -0.060151044 0.054859567 0.09526661 0.13112397 0.024228822
-0.001193629 0.023460874 -0.018021598 -0.05694981 -0.15162912 -0.002559511 -0.10305147 0.27065453
0.0109858345 0.0048046405 0.02536254 0.022715207 0.105901316 -0.30820534 -0.009070612 0.08646194
0.099543035 0.0039306404 -0.014347349 0.022092843 0.0039695413 -0.08833993 -0.08280707 0.021795636
0.008573498 -0.29740983 0.059155438 0.00800026 0.03262571 -0.04130059 -0.027141033 0.3235414
-0.05545316 -0.17655227 -0.0075799413 -0.0023085899 0.049114585 -0.036816727 -4.347281e-05 0.14434347
0.027442306 0.051935352 -0.08328427 0.067019045 0.030496782 0.004198988 -0.008616253 0.0445558
0.036482517 -0.073525764 -0.030086445 -0.22834998 -0.013357231 -0.054593258 -0.034175098 0.03772977
-0.07361325 0.20644662 0.050379094 0.060289524 -0.1293176 0.07431324 0.15985838 -0.05237776
-0.008660686 -0.0025158243 0.15397148 -0.11235816 -0.19592796 0.090385154 -0.021526683 -0.19129153
-0.009598935 -0.00989188 -0.050176788 -0.13201131 0.003077002 0.15038145 -0.0075406544 -0.07477073
0.040586725 0.016917981 -0.049275137 -0.054524187 -0.014431055 0.0362595 -0.05331614 0.08865305
-0.19275405 0.25798503 -0.040709924 0.0038891665 0.03720239 -0.06435219 0.21162885 -0.25149158
-0.019662768 0.33559096 0.022816602 0.02010916 0.00023412524 0.027248511 0.052886896 -0.31165895
-0.05787338 -0.04964849 -0.21762569 -0.033146407 -0.021423098 0.04038831 -0.012600598 0.070180394
0.2760754 0.044348735 -0.09959278 0.22726223 0.20955856 0.013910216 -0.026748963 -0.012693821
0.09276048 -0.16393289 -0.20765829 0.1545728 0.2403925 0.24357481 -0.020140037 -0.0073708273
0.04366899 -0.16769135 -0.21478696 -0.21906357 0.16396101 0.083976164 -0.118765965 -0.022096736
00000000: 7cd8 74be c5bb cabe 43d0 5abe f16b 90bc
00000010: f1a1 e4bb c062 f63c 7b71 543e 9833 d13e
00000020: 2606 203e f0c4 5fbe eb46 0fbe 4b75 5dbd
00000030: ec64 633c 120d 053d c01c 2ebb 713b 323e
00000040: 3165 f13d eeae 153d 9ec6 9d3e 62be 0e3d
00000050: aab2 193e b4c7 8fbc 8842 f73c d08e 893c
00000060: 948e 80be 124a a8bd b783 39be 7ced 90be
00000070: 5691 183e 3d29 96bd efd2 eabc d997 2d3d
00000080: 7d0d 62bc 3d9d 9d3e 9d2f 18be 34f6 9b3d
00000090: ce8b 9cbd 07b0 9abd 5e34 c9bd e19f 1b3d
000000a0: 4066 9fbc f399 76bd 1198 f33c 46dc d23d
000000b0: ff19 223e 6548 c1be d650 363d 28b2 86bd
000000c0: 81e8 2c3c 9b6a bebc 6236 9b3d 2efa b13e
000000d0: d885 0fbd b90b 8c3d 0576 503d 9124 21be
000000e0: 27a1 fbbd 901c 523c b593 943c cd43 75bd
000000f0: ce2a 5cbd 9f1e 0a3e f887 3d3e aa84 99bd
00000100: 5f27 7d3e 68de 423e 5789 483c a007 4c3d
00000110: d49c ea3c 57ce d639 1aa2 81be f879 08be
00000120: 1cf8 8dbc a18c 853e 3cb5 443e d461 3bbc
00000130: 13e4 0e3d 9ef5 26bc 3df2 1abd fd8a 7ebe
00000140: 7079 45be 4591 803e 93c2 73bd d038 03be
00000150: 2fec 26bb 225b c53c 0ad8 183d f9ab 96be
00000160: 4698 843d 3b7d bc3d 677a a5be 4460 9d3e
00000170: f519 33bd c8db b83c bced 97b9 5df3 80bc
00000180: 1221 843e 8aef acbe e84b 873d ec1a 693d
00000190: a183 343e 9c9f 86bd 1240 883c 7ba6 7c3c
000001a0: 753f 6c3c b2d5 56bd f38c 18be d243 313d
000001b0: 3190 e3bc 8c10 af3d d4ea 45bd 1a0d 523d
000001c0: b0ef 48bd 0a50 8c3c d8ce ea3c f160 76bd
000001d0: 6db4 603d 241b c33d 5d45 063e 867b c63c
000001e0: 8b73 9cba 0531 c03c 08a2 93bc 3444 69bd
000001f0: aa44 1bbe 78bd 27bb a60c d3bd 3b93 8a3e
00000200: eefd 333c 3f70 9d3b 1ac5 cf3c 3e15 ba3c
00000210: cae2 d83d 17cd 9dbe e79c 14bc f512 b13d
00000220: 38dd cb3d 9acc 803b 2511 6bbc 0dfc b43c
00000230: ed12 823b 91eb b4bd c196 a9bd c38c b23c
00000240: db77 0c3c 1a46 98be f94c 723d 8613 033c
00000250: 89a2 053d cf2a 29bd df56 debc 38a7 a53e
00000260: da22 63bd 1eca 34be 2861 f8bb b64b 17bb
00000270: 602c 493d 23cd 16bd 9356 36b8 c6ce 133e
00000280: b0ce e03c 2aba 543d f190 aabd 4841 893d
00000290: 63d4 f93c aa97 893b 2f2b 0dbc 2480 363d
000002a0: b16e 153d ad94 96bd d977 f6bc 94d4 69be
000002b0: 4ad8 5abc 2e9d 5fbd 30fb 0bbd 888a 1a3d
000002c0: 8bc2 96bd be66 533e 4f5a 4e3d 26f2 763d
000002d0: d56b 04be 8a31 983d eab1 233e 108a 56bd
000002e0: 8de5 0dbc 87e0 24bb b3aa 1d3e 091c e6bd
000002f0: 57a1 48be da1b b93d ba58 b0bc ede1 43be
00000300: da44 1dbc 8d11 22bc 2d86 4dbd f92d 07be
00000310: 87a7 493b 98fd 193e 9817 f7bb 6621 99bd
00000320: 443e 263d 9497 8a3c bad4 49bd c154 5fbd
00000330: 3b70 6cbc d784 143d 0662 5abd bb8f b53d
00000340: 5161 45be 9d16 843e 73bf 26bd 63e1 7e3b
00000350: 8961 183d 15cb 83bd 3cb5 583e 81c3 80be
00000360: d013 a1bc 94d2 ab3e e2e9 ba3c f7bb a43c
00000370: 847f 7539 4538 df3c ee9f 583d c391 9fbe
00000380: a30c 6dbd 375c 4bbd 45d9 5ebe 87c4 07bd
00000390: 7e7f afbc 366e 253d bd72 4ebc bdba 8f3d
000003a0: c159 8d3e 05a7 353d 4df7 cbbd 6eb7 683e
000003b0: 8596 563e ade7 633c a420 dbbc bff9 4fbc
000003c0: 35f9 bd3d 06de 27be 60a4 54be 5548 1e3e
000003d0: 7429 763e ad6b 793e b8fc a4bc fb86 f1bb
000003e0: 41de 323d 48b7 2bbe 1df1 5bbe 3352 60be
000003f0: 65e5 273e b2fb ab3d 923b f3bd 3704 b5bc

blocks.0.layers.0.layers.2.bias f4 [32]
-0.08765726 -0.32677656 -0.115278155 -0.21793525 -0.26534086 0.019523116 -0.11222537 -0.14824197
-0.055873007 -0.16789377 -0.20292008 0.10192172 -0.15702845 -0.2379509 0.08649032 -0.24931914
-0.34955943 -0.21788335 -0.106856264 -0.10018616 -0.22469065 -0.19751512 -0.14401543 -0.32640842
-0.11697319 -0.3583101 -0.07527903 -0.29009068 -0.4289257 -0.0017219635 -0.23227228 -0.3709517
00000000: a685 b3bd 424f a7be f416 ecbd 6b2a 5fbe
00000010: c2da 87be f1ee 9f3c 6ad6 e5bd becc 17be
00000020: 18db 64bd 58ec 2bbe 48ca 4fbe 56bc d03d
00000030: 11cc 20be 67a9 73be d621 b13d 844d 7fbe
00000040: 74f9 b2be d01c 5fbe 75d7 dabd 672e cdbd
00000050: 4e15 66be 6741 4abe c878 13be 011f a7be
00000060: a48f efbd 6c74 b7be e42b 9abd c486 94be
00000070: 269c dbbe 82b3 e1ba c9d8 6dbe 62ed bdbe

blocks.0.layers.2.layers.2.weight f4 [32, 32, 3, 3]
-0.059623007 -0.23997445 0.09316629 0.18845633 0.13742255 -0.09005366 0.1349611 0.09322561
-0.2629252 -0.20590147 0.12960507 0.0720222 -0.13240698 -0.10707459 0.030159144 -0.18212391
-0.02171345 0.13542038 0.044659026 -0.09985259 0.06050108 -0.1034879 -0.03906851 -0.019474767
-0.089354865 0.0925231 -0.07209626 0.119812764 -0.06141784 -0.0015855615 0.16530047 0.019170025
-0.113564216 -0.037167292 0.061469566 -0.11874414 0.12090684 0.001708259 -0.16391751 0.071352184
-0.045334045 -0.09915498 0.070823014 0.029615156 -0.03423627 0.05663575 -0.08731106 -0.10864476
-0.06470768 -0.07874172 0.010224522 -0.024919555 0.10386385 0.026261628 -0.17508212 -0.17170338
0.17344606 0.14971076 0.049587764 -0.19227663 -0.07022049 0.26478097 -0.062518165 -0.15232363
0.331782 0.1531884 0.0093378555 -0.1356851 0.04934654 0.063414335 -0.19812971 -0.105787344
0.040717628 -0.047722206 -0.074013315 -0.049058374 0.0643307 -0.014355089 0.022286467 -0.034697875
0.080705926 -0.12638393 0.0388833 0.16973083 0.012165263 -0.028191235 0.025408065 0.08066009
-0.056609605 -0.13106902 -0.047042914 -0.037794013 0.13737665 0.21251439 0.1917524 -0.08042548
-0.028118629 -0.08843317 0.05967042 0.068178676 -0.05789738 -0.28699592 0.039827295 -0.046877455
-0.036520768 -0.16194762 -0.04949299 0.17253396 -0.26291507 -0.014469295 0.062442616 -0.14083973
0.051449154 0.115744054 -0.19916452 0.11808495 0.21869154 -0.15867333 -0.16146536 -0.11214686
0.19073743 0.013101422 -0.096824855 -0.17672272 0.21893539 0.1603379 -0.12241652 -0.022961583
0.008308298 0.046922088 -0.024837872 -0.07376057 0.3194647 0.0051158597 -0.20082998 0.14980115
0.040824704 -0.06621891 -0.0072119846 -0.021724712 -0.056623597 -0.09372075 -0.045263298 -0.03131052
-0.11139687 -0.13167223 0.034726813 0.1527686 0.03990151 -0.18732376 -0.07662989 0.033956937
-0.17410356 -0.042921014 0.04564899 0.03249241 -0.036596626 -0.007710803 0.12406524 0.16781858
-0.08918408 -0.15298189 -0.2601889 0.034192737 0.07762561 -0.34249723 0.022108113 0.21230201
-0.46674997 0.0023232463 0.43850255 -0.18165337 0.23679166 0.17135222 -0.23266527 0.035588812
0.10698662 -0.27509084 -0.06638047 0.2482684 -0.10632289 0.07888838 -0.07940485 -0.40905967
0.092779696 0.4673013 -0.05501739 -0.026588816 0.1622933 -0.14211018 -0.044319525 0.09299586
0.027398154 -0.027106201 -0.10712983 0.21146137 -0.043946546 -0.19351345 0.09779972 -0.0058010714
-0.15896188 0.059639394 0.003450997 0.0833768 -0.116138995 -0.027114244 -0.021593975 -0.008891771
-0.04334328 -0.029168205 0.33484876 -0.0012860239 -0.022278532 0.032873627 0.07892848 -0.12936902
-0.34341523 0.17232953 0.29801247 -0.5350063 -0.08195024 0.4492596 -0.24783835 0.03725265
0.2031518 0.010225738 0.07514321 0.041958388 -0.08415376 0.17265043 -0.03817249 -0.22278248
-0.0045267176 0.21622346 0.15901679 -0.18201135 -0.17875159 0.31826103 0.14775223 0.023514593
-0.21554749 -0.08959972 0.017073002 -0.10016197 0.046639264 0.25784177 -0.06848571 0.071848534
0.12689093 0.11937428 0.030987369 -0.11944337 0.11558952 0.060216874 0.012635232 -0.06671233
00000000: 4137 74bd ddbb 75be f8cd be3d b2fa 403e
00000010: 7fb8 0c3e 0e6e b8bd 3e33 0a3e 12ed be3d
00000020: 229e 86be d6d7 52be 31b7 043e 6080 933d
00000030: b295 07be ec49 dbbd 4f10 f73c b17e 3abe
00000040: 68e0 b1bc a4ab 0a3e 62ec 363d 847f ccbd
00000050: fbcf 773d 77f1 d3bd 4d06 20bd 8c89 9fbc
00000060: afff b6bd c07c bd3d 34a7 93bd 6560 f53d
00000070: 4691 7bbd 9ed2 cfba 8744 293e 750a 9d3c
00000080: 5b94 e8bd bb3c 18bd 83c7 7b3d 2130 f3bd
00000090: 019e f73d a9e7 df3a fed9 27be 1821 923d
000000a0: 31b0 39bd c411 cbbd a80b 913d 7c9b f23c
000000b0: 553b 0cbd e3fa 673d 24d0 b2bd 2581 debd
000000c0: 7685 84bd 5743 a1bd c184 273c 1824 ccbc
000000d0: 92b6 d43d a022 d73c ba48 33be 03d3 2fbe
000000e0: d89b 313e c74d 193e 8a1c 4b3d 2ae4 44be
000000f0: c3cf 8fbd 5f91 873e 8609 80bd bafa 1bbe
00000100: 55df a93e 6cdd 1c3e cefd 183c 09f1 0abe
00000110: 991f 4a3d 60df 813d 84e2 4abe 09a7 d8bd
00000120: 87c7 263d 5c78 43bd 4b94 97bd 6ff1 48bd
00000130: d0bf 833d 9b31 6bbc 1c92 b63c 5c1f 0ebd
00000140: 2649 a53d ca6a 01be 1844 1f3d ebcd 2d3e
00000150: d050 473c 4ef1 e6bc 9324 d03c 1e31 a53d
00000160: 79df 67bd f536 06be 12b0 40bd e5cd 1abd
00000170: 77ac 0c3e 5f9d 593e be5a 443e 1db6 a4bd
00000180: 0a59 e6bc 731c b5bd f868 743d 43a1 8b3d
00000190: ce25 6dbd 21f1 92be f221 233d 9302 40bd
000001a0: cd96 15bd 99d5 25be 29b9 4abd beac 303e
000001b0: ce9c 86be 9f10 6dbc d4c3 7f3d 4a38 10be
000001c0: 59bc 523d 380b ed3d c9f1 4bbe 86d6 f13d
000001d0: adf0 5f3e 437b 22be 2d57 25be 41ad e5bd
000001e0: ac50 433e 59a7 563c 1c4c c6bd cdf6 34be
000001f0: 9930 603e 9e2f 243e 83b5 fabd ee19 bcbc
00000200: 871f 083c 6031 403d cb78 cbbc c80f 97bd
00000210: e190 a33e f1a2 a73b 60a6 4dbe 7965 193e
00000220: ce37 273d c89d 87bd 8352 ecbb 06f8 b1bc
00000230: 25ee 67bd aaf0 bfbd 0266 39bd 763f 00bd
00000240: 0b24 e4bd 16d5 06be b43d 0e3d 5f6f 1c3e
00000250: c46f 233d cdd1 3fbe 22f0 9cbd 6e16 0b3d
00000260: 3448 32be f2cd 2fbd 6ffa 3a3d c316 053d
00000270: 58e6 15bd e7aa fcbb eb15 fe3d a2d8 2b3e
00000280: 25a6 b6bd 49a7 1cbe 7b37 85be af0d 0c3d
00000290: 2dfa 9e3d cc5b afbe 131c b53c b365 593e
000002a0: daf9 eebe 9b41 183b 6883 e03e 5703 3abe
000002b0: 8379 723e f576 2f3e ce3f 6ebe 93c5 113d
000002c0: cd1b db3d b5d8 8cbe 7cf2 87bd 123a 7e3e
000002d0: d1bf d9bd 3b90 a13d 039f a2bd 4570 d1be
000002e0: 4803 be3d 1e42 ef3e ea59 61bd cad0 d9bc
000002f0: 3730 263e 5585 11be 6488 35bd 9d74 be3d
00000300: 1872 e03c d30d debc e266 dbbd 5489 583e
00000310: 4b01 34bd 6428 46be 384b c83d ea16 bebb
00000320: e7c6 22be 7048 743d 1f2a 623b 75c1 aa3d
00000330: 48da edbd b11e debc d9e5 b0bc caae 11bc
00000340: b988 31bd 29f2 eebc 4c71 ab3e cd8f a8ba
00000350: 7881 b6bc 7fa6 063d 41a5 a13d 5079 04be
00000360: 1fd4 afbe 2777 303e 1795 983e 2cf6 08bf
00000370: 87d5 a7bd 5b05 e63e 56c9 7dbe 3c96 183d
00000380: 0707 503e db89 273c afe4 993d 8fdc 2b3d
00000390: ce58 acbd 46cb 303e c25a 1cbd 1721 64be
000003a0: dc54 94bb af69 5d3e 4cd5 223e 2f61 3abe
000003b0: a80a 37be 1cf3 a23e 5c4c 173e ada1 c03c
000003c0: 7bb8 5cbe 0f80 b7bd aedc 8b3c b821 cdbd
000003d0: d008 3f3d d603 843e 3c42 8cbd 5325 933d
000003e0: b2ef 013e 817a f43d 39d9 fd3c ba9e f4bd
000003f0: 33ba ec3d f8a5 763d 0104 4f3c 79a0 88bd

blocks.0.layers.2.layers.2.bias f4 [32]
-0.069065936 -0.024648204 0.06395406 -0.12336615 -0.10949912 -0.03313812 0.13582733 -0.085040644
-0.0011046594 -0.00037712706 -0.023141325 -0.1821179 0.047732923 -0.16781561 -0.061447464 0.06678804
-0.112872556 0.12210588 -0.055355474 -0.08693756 0.079928756 -0.010441634 0.030469794 -0.17189828
-0.15939097 -0.016648656 -0.008202971 -0.061427057 -0.08627113 -0.09171088 -0.107295245 -0.10789624
00000000: 7172 8dbd 08eb c9bc 59fa 823d 64a7 fcbd
00000010: 1341 e0bd d6bb 07bd 5216 0b3e ca29 aebd
00000020: 38ca 90ba 23b9 c5b9 e092 bdbc 1d7d 3abe
00000030: 9983 433d dbd7 2bbe 56b0 7bbd 2bc8 883d
00000040: ba29 e7bd a612 fa3d 6cbc 62bd 520c b2bd
00000050: b0b1 a33d 6313 2bbc ca9b f93c 1a06 30be
00000060: 6337 23be c362 88bc c165 06bc f09a 7bbd
00000070: ebae b0bd ead2 bbbd 9cbd dbbd b4f8 dcbd

blocks.1.layers.1.layers.2.weight f4 [16, 32, 3, 3]
0.17817086 -0.018472202 0.054868802 0.15323606 0.016470613 -0.0141356 -0.036905747 0.04195223
-0.28642383 0.17952843 -0.07783244 0.063146606 0.27086747 0.04147149 -0.25494346 -0.010425195
-0.2507187 0.15253766 -0.14693294 0.01683567 -0.047978327 0.045822218 -0.11977258 -0.11405522
-0.19265538 -0.13934326 0.11896036 -0.11658732 0.1210251 -0.013862523 0.06420752 0.37883815
0.08443607 0.13461661 0.23783857 -0.21037187 -0.07765022 -0.21992825 -0.05971041 0.05405029
0.1255316 0.029636957 0.16685402 -0.07147389 -0.01463271 -0.053120896 0.042746097 -0.0039471905
-0.092310846 -0.06405748 -0.095077574 -0.2874386 -0.03678005 0.13281126 -0.054549582 -0.22583748
-0.1906896 -0.2099311 -0.3313119 -0.33294725 -0.043116815 -0.056634508 -0.25570887 0.059543256
0.43183073 0.28258294 -0.06930498 0.14255475 0.13947299 -0.093738414 0.16384524 0.1282089
-0.14254452 -0.024198143 -0.012310003 -0.101945125 -0.10577025 0.021962937 0.12408768 0.21877106
0.061270744 -0.28595528 -0.32242036 -0.10433837 -0.13008375 -0.15145461 -0.087519094 -0.08908571
-0.15716784 -0.23953414 -0.1079207 -0.12124583 -0.0075842678 0.0021534925 -0.10200668 -0.15751563
-0.060371567 -0.07704837 -0.1410253 0.14145137 0.05883922 -0.18785097 0.015066775 0.48779264
0.082417056 0.021939734 0.40127856 -0.08059554 -0.21246128 -0.13722758 -0.15593073 0.107767686
-0.021301785 -0.13200007 -0.18729082 -0.038574025 -0.2795181 -0.032913603 0.02103111 0.35583037
0.014937771 0.14332455 -0.0409401 0.2686941 0.067343295 0.14180821 -0.16211392 -0.24445142
-0.026361957 -0.2358281 0.06111007 0.03808129 -0.14468636 -0.05322397 0.15339807 0.13915768
0.0041123405 -0.11322673 0.009135717 -0.06515462 -0.17502637 -0.22557464 -0.25451767 -0.18514127
0.081879474 -0.107427925 0.20987207 0.09567362 0.23530658 0.10648847 0.069269165 0.10197462
0.35758165 -0.09964468 -0.15268697 -0.14459187 -0.084581986 -0.1462982 -0.12516575 -0.1434185
-0.322522 -0.042756293 -0.0129101565 0.07216476 -0.21339092 -0.011945311 0.020569531 0.26132774
-0.07557947 -0.11928242 -0.021642594 0.19456497 -0.0015117804 -0.06194876 0.104852326 0.0454465
0.04749266 0.1459516 0.075854935 0.10401287 -0.2580472 -0.09002382 -0.071343444 -0.3039384
0.086174056 -0.0675785 -0.31512558 -0.08413652 -0.01569828 0.12413289 -0.24360304 0.14637487
0.0126582775 -0.21040078 0.1550262 0.153251 0.07477964 0.16389553 -0.19953802 0.14877552
0.1706816 -0.23612325 -0.40304476 -0.05007472 -0.18201506 -0.0674045 0.39841998 -0.032400377
-0.055017408 0.07103215 -0.11972334 0.0072731837 0.24300534 0.062078204 0.35708392 0.14644814
0.03531558 0.05647512 0.08610374 0.017485796 0.28887004 -0.061598632 -0.104183346 -0.024703603
0.09598545 -0.06296102 -0.28724825 -0.07325811 0.15458885 -0.160621 -0.18148196 -0.2938843
-0.18655461 0.26536974 -0.27192354 -0.18936396 -0.24222943 -0.18187146 -0.29179776 -0.3620853
-0.09785084 -0.20701984 -0.019621607 0.08425116 -0.16081096 -0.07430974 0.06275852 -0.17727508
-0.073167935 -0.004943049 0.044485096 -0.0033216942 -0.14667173 -0.2591312 0.0020271556 -0.03231999
00000000: 6c72 363e 0453 97bc 1cbe 603d eae9 1c3e
00000010: 61ed 863c 0199 67bc 7b2a 17bd 1ad6 2b3d
00000020: 25a6 92be 4dd6 373e 9d66 9fbd 0253 813d
00000030: 24af 8a3e 02de 293d f387 82be 70ce 2abc
00000040: 345e 80be d532 1c3e 9775 16be f6ea 893c
00000050: ec84 44bd 14b0 3b3d 544b f5bd c895 e9bd
00000060: 7447 45be 00b0 0ebe 7da1 f33d 55c5 eebd
00000070: 02dc f73d a31f 63bc 3b7f 833d 13f7 c13e
00000080: d1ec ac3d f0d8 093e f48b 733e b96b 57be
00000090: 1407 9fbd df34 61be e792 74bd d663 5d3d
000000a0: 5b8b 003e 34c9 f23c c8db 2a3e e760 92bd
000000b0: 09be 6fbc 4c95 59bd 8816 2f3d 6f57 81bb
000000c0: 780d bdbd 9130 83bd 08b8 c2bd 272b 93be
000000d0: ada6 16bd adff 073e 626f 5fbd f141 67be
000000e0: 2244 43be 2ef8 56be b7a1 a9be 1078 aabe
000000f0: 429b 30bd 96f9 67bd 46ec 82be a1e3 733d
00000100: eb18 dd3e b6ae 903e c5ef 8dbd dff9 113e
00000110: 02d2 0e3e edf9 bfbd 0cc7 273e 3249 033e
00000120: 31f7 11be 2f3b c6bc e5af 49bc 9bc8 d0bd
00000130: 139e d8bd 9eeb b33c ae21 fe3d 8505 603e
00000140: 08f7 7a3d bb68 92be 4814 a5be 5baf d5bd
00000150: ad34 05be eb16 1bbe 363d b3bd 9272 b6bd
00000160: 9bf0 20be 7048 75be 8705 ddbd bc4f f8bd
00000170: 7385 f8bb 9c21 0d3b e1e8 d0bd c74b 21be
00000180: 2d48 77bd 89cb 9dbd f068 10be a1d8 103e
00000190: 6501 713d 015c 40be a2da 763c f5bf f93e
000001a0: 46ca a83d f5ba b33c 6274 cd3e 460f a5bd
000001b0: 738f 59be 6385 0cbe 4eac 1fbe 4eb5 dc3d
000001c0: 1581 aebc 072b 07be 2ac9 3fbe ccff 1dbd
000001d0: ff1c 8fbe 6ad0 06bd 6f49 ac3c 662f b63e
000001e0: 8dbd 743c acc3 123e ceb0 27bd 4692 893e
000001f0: 48eb 893d 2c36 113e 3101 26be 7951 7abe
00000200: 08f5 d7bc ec7c 71be 8e4e 7a3d 20fb 1b3d
00000210: a928 14be 6101 5abd 6214 1d3e 5a7f 0e3e
00000220: d0c0 863b 6ae3 e7bd f9ad 153c c96f 85bd
00000230: 1d3a 33be 0afd 66be 2450 82be ac95 3dbe
00000240: 6db0 a73d 2c03 dcbd b4e8 563e 88f0 c33d
00000250: 35f4 703e a116 da3d fedc 8d3d 12d8 d03d
00000260: f114 b73e 8312 ccbd f959 1cbe e40f 14be
00000270: 5239 adbd 32cf 15be 732b 00be 4ddc 12be
00000280: 9b21 a5be 3921 2fbd 1f85 53bc 1ecb 933d
00000290: 2683 5abe 44b6 43bc 6f81 a83c c0cc 853e
000002a0: 69c9 9abd 574a f4bd cf4b b1bc 0a3c 473e
000002b0: ef26 c6ba fcbd 7dbd d1bc d63d 1c26 3a3d
000002c0: aa87 423d 5674 153e d559 9b3d b304 d53d
000002d0: c31e 84be 695e b8bd 831c 92bd d09d 9bbe
000002e0: 067c b03d 9966 8abd 2458 a1be c54f acbd
000002f0: ae99 80bc 6239 fe3d 1373 79be 4be3 153e
00000300: aa64 4f3c 4d73 57be 30bf 1e3e d5ed 1c3e
00000310: 1126 993d 3bd4 273e b253 4cbe 9c58 183e
00000320: 28c7 2e3e 4bca 71be e25b cebe 261b 4dbd
00000330: 2862 3abe 5f0b 8abd b4fd cb3e 42b6 04bd
00000340: ef59 61bd 4e79 913d 8331 f5bd e353 ee3b
00000350: 64d6 783e b745 7e3d b4d3 b63e 80f6 153e
00000360: 12a7 103d 7552 673d 2857 b03d 5f3e 8f3c
00000370: c6e6 933e d94e 7cbd 145e d5bd 365f cabc
00000380: 0594 c43d b5f1 80bd 3412 93be 5908 96bd
00000390: 8a4c 1e3e d579 24be 68d6 39be 0178 96be
000003a0: 2c08 3fbe 8bde 873e 9039 8bbe a0e8 41be
000003b0: fe0a 78be 833c 3abe 8466 95be 3f63 b9be
000003c0: 0566 c8bd 02fd 53be 7ebd a0bc df8b ac3d
000003d0: a1ab 24be b42f 98bd 8a87 803d 9987 35be
000003e0: 12d9 95bd 4df9 a1bb 0136 363d c8b0 59bb
000003f0: 1d31 16be d8ac 84be 07da 043b f761 04bd

blocks.1.layers.1.layers.2.bias f4 [16]
-0.23083185 0.12588693 -0.13201088 -0.08221971 0.020853288 0.099604614 0.0005948656 -0.0943257
-0.19513996 0.06719387 -0.051228043 -0.07939044 0.006307255 0.052203063 -0.09627075 -0.12955928
00000000: 2f5f 6cbe 81e8 003e dc2d 07be cf62 a8bd
00000010: 84d4 aa3c 81fd cb3d c1f0 1b3a d52d c1bd
00000020: c5d2 47be f19c 893d 7fd4 51bd 7497 a2bd
00000030: 17ad ce3b e1d2 553d 9929 c5bd 30ab 04be

blocks.1.layers.3.layers.2.weight f4 [16, 16, 3, 3]
-0.029160922 -0.11808078 0.16684201 0.034366127 -0.27198654 -0.19429801 0.14744371 -0.08316257
-0.3436916 0.22867386 -0.123914905 -0.08214486 0.15987626 0.086988404 0.08402805 0.13453098
0.2451687 -0.14589727 0.017533813 -0.066822775 0.087358855 0.12564868 -0.18585016 0.12032171
-0.30313608 0.09581087 0.2762988 0.009921263 -0.036642946 -0.041212358 0.0024405958 0.04344697
0.069750436 0.10939098 -0.08116434 -0.12205698 0.31984904 0.27973244 0.12684293 0.10580782
0.2645805 -0.0901303 -0.11315636 0.11250109 -0.13310567 -0.018253537 -0.17237104 -0.0037173384
0.0495031 -0.05411935 0.16953833 0.12308283 0.1042592 -0.008954752 0.21704006 0.09499919
0.09843873 0.10911908 0.2702587 0.116467856 0.12282644 -0.20737708 -0.14658368 -0.04666188
0.3266571 0.35748637 0.17193009 -0.030719643 -0.005723539 0.53375125 0.39833075 0.40000612
0.12499325 -0.10819418 -0.097410284 -0.097640656 0.21666735 0.0007542959 0.1378436 0.081518516
0.23464052 -0.1402664 -0.29343328 -0.018546583 -0.07758573 0.12224533 -0.041395053 0.23172142
0.06973908 0.028283993 0.0045094406 -0.02593774 -0.1738386 0.009090913 -0.09125725 -0.22080825
0.25423247 0.031750795 0.13168603 0.068339676 -0.12476713 0.21943058 0.14345613 -0.2557941
-0.1397055 0.16981119 -0.15437758 -0.012726481 0.0072429273 0.20427966 0.008900864 0.14843284
0.20349683 0.07891571 0.008151848 0.13858783 -0.31580064 -0.20288402 -0.17983463 -0.1798249
0.22790079 -0.088894196 -0.2414312 0.12085759 -0.16207908 0.052576333 0.29396075 -0.33150983
0.029970542 0.22634289 -0.034587193 -0.05851268 0.02893765 0.012067095 -0.23035966 -0.107114695
-0.12554324 -0.008902179 0.13324584 -0.05990912 0.030630067 0.091583155 0.23515268 -0.00058885326
-0.08890037 -0.016645068 -0.0004314887 0.00015541213 -0.004616508 0.28769127 -0.11082503 -0.19496244
-0.12925833 0.19760746 0.026680395 0.04830837 -0.1010849 -0.30580884 0.10129912 0.19393109
0.17126055 -0.24088341 0.23922653 0.10915541 -0.11676392 -0.19568588 0.03810859 0.22607142
-0.054049857 0.15074143 -0.11881814 -0.03435984 0.048280213 -0.2329638 0.18954405 0.032398634
-0.19285053 0.011373095 0.31177917 -0.20395017 -0.19351153 -0.038658198 -0.025513848 -0.004866813
-0.4277509 0.066328496 0.02700249 0.12043407 -0.17098354 0.10367543 -0.025635343 0.21221253
-0.042480677 -0.015450947 -0.11768556 -0.16028859 0.07000919 0.22417836 0.27505276 0.033240087
-0.023444854 -0.0967859 0.011220081 -0.012992722 -0.19829747 -0.17992127 0.19763654 -0.046409886
0.1120785 -0.15097585 -0.010726036 0.1250896 -0.034385625 -0.0965156 -0.003568233 -0.115027405
-0.01632275 -0.050428856 -0.013273822 0.024652692 0.11943775 0.051043987 0.04762231 0.21522284
-0.11746517 -0.18220906 0.23830044 -0.1899621 -0.094011836 0.17560473 -0.089576334 -0.25587597
-0.022189943 -0.46761975 0.0054071303 -0.08748097 0.072865255 0.06718525 -0.13189892 0.0132540595
0.027926167 -0.085288644 -0.18265176 0.0456267 -0.24662896 0.002817742 -0.08864681 0.29189685
0.017177105 -0.32850388 0.12790613 -0.033964526 0.021742081 -0.06699856 0.15650082 -0.041732684
00000000: e3e2 eebc 56d4 f1bd a2d8 2a3e 7fc3 0c3d
00000010: d241 8bbe 0ff6 46be 7cfb 163e 2351 aabd
00000020: 58f8 afbe 7b29 6a3e 19c7 fdbd 903b a8bd
00000030: 9ab6 233e fa26 b23d e616 ac3d 7dc2 093e
00000040: 810d 7b3e 1866 15be 12a3 8f3c 61da 88bd
00000050: 33e9 b23d 0caa 003e 814f 3ebe 3b6b f63d
00000060: a734 9bbe 7d38 c43d 0977 8d3e cb8c 223c
00000070: ea16 16bd 4ace 28bd 67f2 1f3b 73f5 313d
00000080: 51d9 8e3d 6108 e03d 7d39 a6bd 03f9 f9bd
00000090: 41c3 a33e 1739 8f3e 1de3 013e c5b1 d83d
000000a0: 1877 873e 3c96 b8bd 86be e7bd f966 e63d
000000b0: da4c 08be 7188 95bc 0982 30be 979e 73bb
000000c0: c3c3 4a3d 40ac 5dbd 759b 2d3e da12 fc3d
000000d0: d985 d53d f4b6 12bc c03f 5e3e ef8e c23d
000000e0: 3f9a c93d d379 df3d 595f 8a3e b386 ee3d
000000f0: 6e8c fb3d a85a 54be 081a 16be 8720 3fbd
00000100: 993f a73e 7408 b73e 710e 303e c3a7 fbbc
00000110: 868c bbbb eca3 083f 02f2 cb3e 9acd cc3e
00000120: 76fc ff3d e994 ddbd 0b7f c7bd d3f7 c7bd
00000130: 0cde 5d3e f1bb 453a df26 0d3e 2ef3 a63d
00000140: 9b45 703e ffa1 0fbe e33c 96be 01ef 97bc
00000150: 44e5 9ebd c25b fa3d dc8d 29bd 6148 6d3e
00000160: 5dd3 8e3d d5b3 e73c eec3 933b 627b d4bc
00000170: bf02 32be 0ef2 143c 15e5 babd 8f1b 62be
00000180: c22a 823e 1f0d 023d b4d8 063e acf5 8b3d
00000190: e985 ffbd 69b2 603e 2ae6 123e 72f7 82be
000001a0: f50e 0fbe fce2 2d3e 2815 1ebe bb82 50bc
000001b0: 1456 ed3b b02e 513e eed4 113c c7fe 173e
000001c0: 7961 503e 8f9e a13d 548f 053c f8e9 0d3e
000001d0: 9fb0 a1be d4c0 4fbe 9226 38be 0524 38be
000001e0: d35e 693e 290e b6bd be39 77be 2f84 f73d
000001f0: 0ff8 25be 485a 573d 0682 963e a8bb a9be
00000200: c884 f53c 6ec6 673e 4dab 0dbd feaa 6fbd
00000210: a70e ed3c 11b5 453c 67e3 6bbe f35e dbbd
00000220: 688e 00be 72da 11bc 9971 083e 4463 75bd
00000230: e8eb fa3c f38f bb3d ddcb 703e 465d 1aba
00000240: 6611 b6bd 3d5b 88bc 6f39 e2b9 20f6 2239
00000250: 1346 97bb 454c 933e 3cf8 e2bd 3ca4 47be
00000260: 4c5c 04be 9c59 4a3e d890 da3c ffde 453d
00000270: 9a05 cfbd fa92 9cbe ea75 cf3d df95 463e
00000280: ed5e 2f3e 24aa 76be cdf7 743e df8c df3d
00000290: ec21 efbd e161 48be c117 1c3d 447f 673e
000002a0: 6263 5dbd f65b 1a3e ed56 f3bd e7bc 0cbd
000002b0: 79c1 453d 108e 6ebe d617 423e 6eb4 043d
000002c0: 9c7a 45be 3856 3a3c 85a1 9f3e 50d8 50be
000002d0: e327 46be 0f58 1ebd 6b02 d1bc c979 9fbb
000002e0: 2a02 dbbe 3cd7 873d 5334 dd3c 23a6 f63d
000002f0: 4f16 2fbe c953 d43d 3601 d2bc 3e4e 593e
00000300: 3800 2ebd f825 7dbc 2005 f1bd b122 24be
00000310: fa60 8f3d 038f 653e b7d3 8c3e c226 083d
00000320: 6c0f c0bc b037 c6bd 6ed4 373c 6ddf 54bc
00000330: 7e0e 4bbe 483d 38be 3c61 4a3e 4b18 3ebd
00000340: 6a89 e53d 6a99 1abe 41bc 2fbc 7d17 003e
00000350: f1d7 0cbd f9a9 c5bd 04d9 69bb 7d93 ebbd
00000360: 4ab7 85bc 7d8e 4ebd 727a 59bc 71f4 c93c
00000370: c79b f43d 8013 513d 9d0f 433d 6063 5c3e
00000380: 9491 f0bd 0395 3abe 0805 743e 6d85 42be
00000390: 4789 c0bd bad1 333e cc73 b7bd 2d02 83be
000003a0: afc7 b5bc db6b efbe 4c2e b13b 3929 b3bd
000003b0: 613a 953d 6c98 893d 8310 07be 8e27 593c
000003c0: 6bc5 e43c d0ab aebd 1009 3bbe 10e3 3a3d
000003d0: 4d8c 7cbe dea9 383b 758c b5bd 8173 953e
000003e0: 00b7 8c3c a931 a8be d3f9 023e 631e 0bbd
000003f0: 731c b23c 8b36 89bd c041 203e e4ef 2abd

blocks.1.layers.3.layers.2.bias f4 [16]
-0.10310202 -0.011980219 0.06967735 0.05999157 -0.06265512 0.057261247 0.023027476 -0.0065724
-0.016823035 0.009718153 -0.090783305 0.008514991 0.07560937 -0.061933693 -0.076639935 0.009501336
00000000: 2727 d3bd ae48 44bc 00b3 8e3d b8b9 753d
00000010: 5451 80bd c58a 6a3d 1ea4 bc3c 4a5d d7bb
00000020: 76d0 89bc e338 1f3c 99ec b9bd 7682 0b3c
00000030: 16d9 9a3d 2fae 7dbd 66f5 9cbd 7eab 1b3c

blocks.2.layers.1.layers.2.weight f4 [8, 16, 3, 3]
0.14432944 -0.067076094 -0.0044644414 0.08174936 -0.084373236 0.015910681 0.06151744 0.024652854
-0.30298802 0.049393572 0.1340694 -0.06550864 0.14989452 -0.40910643 0.061940555 0.22960779
0.22633314 -0.045044348 -0.21180162 -0.00068414054 0.04606524 -0.07534384 0.18610659 0.38673997
0.028104203 -0.045578334 -0.13929375 -0.17641085 0.08239419 -0.13874795 -0.0109659415 -0.036216486
0.07431371 0.01213895 0.0071351775 -0.11023379 0.20360465 0.07161283 -0.17947319 0.2535544
0.030305305 -0.074390754 0.37718043 -0.062577076 0.012275078 0.19823138 0.16533682 0.020200657
0.003785389 0.021100093 0.08934509 0.019157844 -0.25941423 -0.17599715 0.15154466 -0.011051421
0.059870858 0.14404322 0.06742274 0.1397833 0.03446932 0.06828705 -0.045514617 0.06931632
-0.27968776 -0.035039704 -0.077675834 0.17486186 -0.11368967 0.08183089 0.12002126 -0.40406072
0.057041436 0.1331989 0.38338298 -0.12853155 -0.17298874 0.018521998 0.0499236 0.106674
-0.1095146 0.11017624 0.026282068 -0.41415164 -0.019593677 -0.00832828 -0.24124181 0.0035841393
-0.1259076 -0.0661418 0.20482531 -0.16113023 0.16317621 0.04910432 -0.23226967 -0.06151308
0.0028071222 -0.31130248 0.14015985 0.08629963 -0.03513068 -0.1304946 -0.019079886 0.016727423
0.023942215 -0.092213586 -0.17432421 -0.08701386 -0.14733347 0.04350313 -0.10950647 -0.20653756
-0.015343361 0.059634414 0.05278986 0.22466807 0.027795952 0.25781754 0.014110098 -0.19370538
0.060488366 -0.033152405 -0.0116425585 -0.19280809 0.090295136 -0.019128649 0.0022408592 -0.085992046
0.09809993 -0.14891244 0.022763114 -0.034743015 -0.13138033 0.05589047 0.3450202 -0.031744245
-0.04390542 -0.13307832 -0.03899043 0.20322372 0.023804 -0.1986722 -0.12892365 -0.17235078
-0.012663761 0.33635166 -0.077925846 0.19240946 -0.11703012 0.034084454 0.028079463 0.028829005
0.1947358 0.024877712 -0.25278002 -0.041616447 -0.10998707 -0.053044267 0.29471582 -0.0039513386
-0.12663566 0.27444848 0.080498554 -0.010136249 0.33621758 -0.03845111 0.18710928 0.19238287
0.052222297 -0.051794283 0.06563286 -0.07197548 0.14185205 0.26993263 8.896175e-05 -0.013389057
0.026952604 0.091530755 -0.16491058 -0.08049252 0.09155248 0.079834715 0.014938079 -0.09720756
0.23095118 0.25706282 -0.13452429 -0.12144755 -0.3316581 -0.112665564 -0.059108816 -0.092920996
0.1540988 0.23828171 0.15563543 0.3972217 -0.1721873 0.12015908 -0.40432924 -0.05610798
0.046422992 0.06286173 0.3785061 0.12475276 -0.115081236 -0.14208068 -0.095743716 0.2749032
-0.18883741 0.26917523 0.213234 0.03590438 0.06806038 0.24805318 -0.08894284 -0.15916534
0.09568622 0.2131854 -0.20201588 -0.15759733 -0.1059631 0.08671639 -0.0033427845 -0.024979705
-0.06112653 0.16173825 0.02497776 0.13035911 0.02972007 -0.03526865 0.020414358 0.072643556
0.028057316 -0.17017189 0.19284528 -0.36735892 -0.21272714 0.18968195 -0.0504522 0.18144877
-0.3763422 0.06924246 -0.1289227 0.40786472 -0.063751094 0.101659335 -0.02782169 -0.10594938
0.20502582 -0.2861327 0.14594784 0.12631193 0.008722061 -0.022152333 0.107561626 -0.1936857
00000000: 19cb 133e 315f 89bd 734a 92bb 356c a73d
00000010: e0cb acbd 1e57 823c b6f9 7b3d c8f4 c93c
00000020: 3f21 9bbe ea50 4a3d 7d49 093e 6529 86bd
00000030: f37d 193e 6676 d1be 61b5 7d3d 4e1e 6b3e
00000040: e0c3 673e 6c80 38bd 86e2 58be e557 33ba
00000050: e8ae 3c3d df4d 9abd ba92 3e3e c802 c63e
00000060: c93a e63c 59b0 3abd 05a3 0ebe 0ca5 34be
00000070: 49be a83d f113 0ebe 7eaa 33bc bd57 14bd
00000080: c931 983d 72e2 463c 35ce e93b 41c2 e1bd
00000090: bd7d 503e bfa9 923d d2c7 37be e2d1 813e
000000a0: d542 f83c 2e5a 98bd cb1d c13e 6928 80bd
000000b0: 691d 493c 2bfd 4a3e 0e4e 293e d97b a53c
000000c0: 4a14 783b 1ada ac3c 8ffa b63d e9f0 9c3c
000000d0: f1d1 84be 9938 34be 862e 1b3e 0511 35bc
000000e0: 253b 753d 1180 133e ef14 8a3d 5a23 0f3e
000000f0: b42f 0d3d 15da 8b3d 896d 3abd b7f5 8d3d
00000100: 3c33 8fbe cb85 0fbd 8214 9fbd fd0e 333e
00000110: 21d6 e8bd f496 a73d b5cd f53d 0ce1 cebe
00000120: 48a4 693d 4b65 083e c64a c43e c69d 03be
00000130: f623 31be 72bb 973c b07c 4c3d e677 da3d
00000140: 3149 e0bd 15a4 e13d 7e4d d73c af0b d4be
00000150: eb82 a0bc 5773 08bc 1808 77be e1e3 6a3b
00000160: eced 00be 5a75 87bd babd 513e 53ff 24be
00000170: aa17 273e 9d21 493d 1ad8 6dbe 24f5 7bbd
00000180: b2f7 373b 0a63 9fbe 1086 0f3e dcbd b03d
00000190: 30e5 0fbd 60a0 05be 6c4d 9cbc f307 893c
000001a0: 7722 c43c 7ada bcbd 0c82 32be 5334 b2bd
000001b0: 96de 16be 5730 323d ee44 e0bd 957e 53be
000001c0: b862 7bbc 3743 743d 2e3a 583d 630f 663e
000001d0: 56b4 e33c a900 843e 0a2e 673c b45a 46be
000001e0: a6c2 773d d1ca 07bd 6ec0 3ebc 7c6f 45be
000001f0: a8ec b83d afb3 9cbc 61db 123b 991c b0bd
00000200: 9ee8 c83d 817c 18be b679 ba3c b14e 0ebd
00000210: 9188 06be 68ed 643d 7da6 b03e 4106 02bd
00000220: 2bd6 33bd af45 08be 6eb4 1fbd e119 503e
00000230: 9b00 c33c ba70 4bbe 9004 04be b97c 30be
00000240: aa7b 4fbc 4936 ac3e 9697 9fbd fc06 453e
00000250: 7dad efbd 249c 0b3d e706 e63c ce2a ec3c
00000260: d268 473e 58cc cb3c 626c 81be 0276 2abd
00000270: e740 e1bd f244 59bd fee4 963e 3b7a 81bb
00000280: c7ac 01be 8384 8c3e 6ddc a43d 8212 26bc
00000290: b624 ac3e e97e 1dbd 9399 3f3e 0400 453e
000002a0: 0ce7 553d 3e26 54bd 856a 863d e167 93bd
000002b0: aa41 113e 9c34 8a3e fa90 ba38 c65d 5bbc
000002c0: b5cb dc3c 7a74 bb3d 52de 28be 43d9 a4bd
000002d0: de7f bb3d 6280 a33d d8be 743c c214 c7bd
000002e0: 777e 6c3e bd9d 833e bcc0 09be 7eb9 f8bd
000002f0: 17cf a9be 34bd e6bd 161c 72bd 5d4d bebd
00000300: 13cc 1d3e 1f00 743e e55e 1f3e a560 cb3e
00000310: de51 30be f715 f63d 3e04 cfbe 7bd1 65bd
00000320: 0926 3e3d a7bd 803d 8dcb c13e 607e ff3d
00000330: b6af ebbd 997d 11be 4815 c4bd 1dc0 8c3e
00000340: 985e 41be 56d1 893e 045a 5a3e 7910 133d
00000350: 3e63 8b3d a701 7e3e aa27 b6bd 3dfc 22be
00000360: 23f7 c33d 464d 5a3e 40dd 4ebe 3261 21be
00000370: 2f03 d9bd 5d98 b13d 9e12 5bbb 3da2 ccbc
00000380: d05f 7abd b69e 253e 299e cc3c dc7c 053e
00000390: 8177 f33c dc75 10bd 033c a73c 25c6 943d
000003a0: 75d8 e53c 8a41 2ebe 3c79 453e 7816 bcbe
000003b0: 25d5 59be fc3b 423e f7a6 4ebd b5cd 393e
000003c0: edaf c0be fece 8d3d 5004 04be a5d3 d03e
000003d0: ef8f 82bd c532 d03d 50ea e3bc fdfb d8bd
000003e0: 4af2 513e fc7f 92be 5a73 153e ea57 013e
000003f0: fae6 0e3c cf78 b5bc 4549 dc3d 8b55 46be

blocks.2.layers.1.layers.2.bias f4 [8]
0.05334216 0.025765616 0.047591195 0.019067785 0.1321974 -0.061839126 0.087125726 -0.012336796
00000000: 4f7d 5a3d 6a12 d33c fcee 423d 0b34 9c3c
00000010: c15e 073e 064b 7dbd f96e b23d 4620 4abc

blocks.2.layers.3.layers.2.weight f4 [8, 8, 3, 3]
0.17861834 0.12240934 0.1579255 0.1436041 0.06802132 0.1900047 -0.20006722 0.07498219
-0.25185063 -0.27829638 0.20619763 -0.06269868 -0.0926345 -0.3037311 -0.41754842 0.30465528
0.109905586 0.21241954 0.17189875 0.08852006 0.08926322 0.20533784 0.08582519 0.21063405
-0.2505797 0.04146929 -0.07478085 -0.024947125 -0.06355246 0.057142187 0.09315399 -0.051263206
-0.14949608 -0.18302289 -0.1740377 -0.13073133 -0.08159972 0.20321772 0.5408612 0.09310407
0.042696636 -0.033014357 -0.014991519 0.017622719 0.19725914 -0.13222414 0.012688468 0.08920521
-0.1875302 0.2979117 0.40445408 -0.07682131 0.15654731 -0.15594147 -0.16319202 -0.07682124
0.13660768 0.1332559 -0.031260114 0.107014045 -0.22682479 0.13007149 -0.09003965 -0.09997558
-0.122179255 0.2611763 0.048810348 0.024551565 -0.15210818 -0.16274634 -0.04902269 0.01434613
-0.16603395 -0.14589705 -0.1324326 -0.20495424 0.05459914 0.06226995 -0.13330811 -0.024214204
-0.05756479 -0.08076501 0.27229345 0.10342151 0.047748238 -0.08698423 -0.26384076 0.08557375
0.050386906 0.10102376 0.107319124 0.16370384 0.021541692 0.39200732 -0.039809458 0.10539082
-0.18467948 0.056350168 -0.32295468 -0.07582967 -0.07318697 -0.18114701 0.033508692 2.6826594e-05
-0.22169098 -0.10206655 -0.17962642 -0.12898271 -0.065001056 0.1314943 0.3136116 -0.13521704
-0.006919228 0.22672202 0.10408716 -0.044213142 0.20514429 -0.066099904 0.11886112 -0.043223917
0.056442272 0.39798686 0.14713463 -0.073452935 0.219492 -0.005893099 -0.042741 -0.09425704
-0.061405566 -0.024627086 0.37190583 0.15979838 -0.11784448 0.047028977 -0.08673738 -0.05550333
-0.043833558 0.08047655 -0.118658915 -0.016529264 0.012243178 -0.13439827 0.14510421 0.39358282
-0.16505048 -0.17463565 -0.014721632 0.27139643 -0.21360631 -0.0961709 -0.22091104 -0.28762555
0.31880924 0.07975029 -0.06801183 -0.12851968 -0.20846987 0.15038416 0.23833528 -0.09433804
0.18840848 0.1192633 0.010948977 -0.06937112 0.15303296 0.20058054 0.1793455 0.35641482
-0.11245488 -0.12971252 0.0030225087 0.27515408 -0.09775869 -0.104111396 0.121543474 -0.10801914
0.093251154 -0.08836475 0.1326612 -0.029654967 -0.15748632 0.085544504 0.10614348 -0.044577274
0.1857847 -0.05962136 -0.25503913 -0.10904367 -0.09560241 -0.037403144 -0.09188997 0.050544303
-0.18472795 0.088279635 -0.15408416 0.10585164 -0.14963649 0.08357937 0.20219857 0.28683007
-0.26685193 -0.13925786 0.23343408 -0.0786728 -0.11455871 0.28120333 0.10259285 0.042115297
0.03280524 -0.01019552 -0.11285382 0.264063 -0.1195413 -0.17300373 -0.19874343 -0.2303515
0.011468288 -0.37873805 -0.16030788 -0.11769379 -0.10831603 -0.10716404 0.002486586 -0.31671545
0.24854787 -0.053026 -0.23778568 -0.012458404 -0.46437833 -0.015282882 -0.010495614 -0.011167164
0.14380388 0.029359663 -0.43825036 -0.1535917 0.35181662 -0.08288353 0.13535349 0.35606766
-0.07473759 -0.2063237 -0.2264169 0.040430076 -0.15586945 -0.057723176 -0.18798247 -0.078246154
-0.17036918 -0.1885369 -0.022007301 -0.08208589 -0.034518927 -0.13148728 0.07509448 0.014327252
00000000: bae7 363e c0b1 fa3d 39b7 213e f40c 133e
00000010: c34e 8b3d 9890 423e 6cde 4cbe 4390 993d
00000020: 91f2 80be dd7c 8ebe 7925 533e 2a68 80bd
00000030: 28b7 bdbd a582 9bbe e8c8 d5be c7fb 9b3e
00000040: 2e16 e13d 8284 593e 3a06 303e 014a b53d
00000050: a3cf b63d 1544 523e 1ec5 af3d 74b0 573e
00000060: fc4b 80be b4db 293d b426 99bd ea5d ccbc
00000070: cb27 82bd ed0d 6a3d 85c7 be3d 5ef9 51bd
00000080: 8015 19be 5a6a 3bbe f036 32be 6fde 05be
00000090: c11d a7bd 4e18 503e e175 0a3f 59ad be3d
000000a0: abe2 2e3d 103a 07bd fd9e 75bc 855d 903c
000000b0: 4dfe 493e c465 07be 4be3 4f3c 39b1 b63d
000000c0: eb07 40be e287 983e 9b14 cf3e 7e54 9dbd
000000d0: f04d 203e 1faf 1fbe cf1b 27be 7454 9dbd
000000e0: e2e2 0b3e 3c74 083e 9b0a 00bd 2e2a db3d
000000f0: c244 68be 7631 053e b566 b8bd ffbf ccbd
00000100: 1e39 fabd e6b8 853e 5ced 473d 5d20 c93c
00000110: 3fc2 1bbe faa6 26be 04cc 48bd 080c 6b3c
00000120: ce04 2abe 0966 15be 699c 07be 86df 51be
00000130: 59a3 5f3d c60e 7f3d ec81 08be de5c c6bc
00000140: 0fc9 6bbd 2068 a5bd 0c6a 8b3e a8ce d33d
00000150: a893 433d ca24 b2bd 2316 87be 4a41 af3d
00000160: 8062 4e3d 8ce5 ce3d 21ca db3d fba1 273e
00000170: 3478 b03c 2fb5 c83e 3e0f 23bd 24d7 d73d
00000180: 9e1c 3dbe 6fcf 663d 515a a5be 964c 9bbd
00000190: 0de3 95bd 9a7e 39be 6940 093d ac09 e137
000001a0: f602 63be 4408 d1bd fdef 37be 0b14 04be
000001b0: 461f 85bd 71a6 063e b391 a03e 5676 0abe
000001c0: b1ba e2bb d129 683e a62b d53d d718 35bd
000001d0: 5811 523e 635f 87bd 756d f33d 900b 31bd
000001e0: 0330 673d efc4 cb3e 76aa 163e 7e6e 96bd
000001f0: 83c2 603e e61a c1bb 3011 2fbd d609 c1bd
00000200: 6784 7bbd bebe c9bc 716a be3e 30a2 233e
00000210: 7258 f1bd 75a1 403d 5ea3 b1bd 7657 63bd
00000220: d18a 33bd e4d0 a43d 7203 f3bd 6168 87bc
00000230: 9c97 483c b39f 09be 3396 143e b083 c93e
00000240: fe02 29be b0d3 32be 0033 71bc 79f4 8a3e
00000250: 9dbb 5abe 40f5 c4bd 8136 62be a843 93be
00000260: f73a a33e 1f54 a33d c949 8bbd aa9a 03be
00000270: 2079 55be 4efe 193e 2a0e 743e 4d34 c1bd
00000280: 27ee 403e 5140 f43d 5763 333c 7212 8ebd
00000290: acb4 1c3e fc64 4d3e 59a6 373e 017c b63e
000002a0: be4e e6bd 5cd3 04be 4815 463b ffe0 8c3e
000002b0: b535 c8bd 5b38 d5bd c9eb f83d 2439 ddbd
000002c0: 76fa be3d 94f8 b4bd 56d8 073e f9ee f2bc
000002d0: 1844 21be f531 af3d c161 d93d a996 36bd
000002e0: 583e 3e3e 8735 74bd 7d94 82be 4a52 dfbd
000002f0: 32cb c3bd 0a34 19bd cf30 bcbd 8b07 4f3d
00000300: 5329 3dbe f4cb b43d 3dc8 1dbe bfc8 d83d
00000310: 4f3a 19be a92b ab3d 240d 4f3e 64db 923e
00000320: d1a0 88be 9d99 0ebe 5809 6f3e 341f a1bd
00000330: c29d eabd e2f9 8f3e 331c d23d 1781 2c3d
00000340: ca5e 063d 1c0b 27bc e71f e7bd 4433 873e
00000350: 12d2 f4bd e427 31be 6683 4bbe 43e1 6bbe
00000360: 7ce5 3b3c f4e9 c1be c027 24be 7109 f1bd
00000370: cbd4 ddbd d278 dbbd fef5 223b 8728 a2be
00000380: 5583 7e3e ca31 59bd 177e 73be 551e 4cbc
00000390: ffc2 edbe 0e65 7abc ccf5 2bbc 7bf6 36bc
000003a0: 5341 133e ad83 f03c 5a62 e0be 2547 1dbe
000003b0: 4f21 b43e d7be a9bd 1b9a 0a3e 804e b63e
000003c0: 0610 99bd 8546 53be d5d9 67be 029a 253d
000003d0: 3e9c 1fbe 236f 6cbd 7a7e 40be 853f a0bd
000003e0: 4275 2ebe d10f 41be a848 b4bc a61c a8bd
000003f0: b863 0dbd 9aa4 06be 22cb 993d dabc 6a3c

blocks.2.layers.3.layers.2.bias f4 [8]
0.1800806 0.10742124 0.017112598 -0.07952644 -0.13528052 0.063923694 0.056214057 -0.0110058235
00000000: 0c67 383e abff db3d b82f 8c3c c2de a2bd
00000010: fa86 0abe 6dea 823d b640 663d c551 34bc

blocks.3.layers.1.layers.2.weight f4 [4, 8, 3, 3]
-0.19837606 0.2028121 -0.09638803 -0.0012403646 -0.21550947 -0.10901704 -0.21076679 -0.21609364
-0.016140668 0.17864168 -0.18720503 -0.104318604 0.09896404 -0.16710928 -0.29468247 0.17992915
0.014062124 -0.01296122 0.054361243 -0.3456249 -0.045325663 0.15400563 0.2105201 -0.30914
-0.011396148 0.094122544 0.13531053 0.16013664 -0.17474629 -0.13329284 -0.15044154 -0.0946223
-0.26121145 -0.36537874 -0.4498586 -0.13750833 -0.009518444 0.13225698 0.2035814 -0.03672889
-0.022295747 0.0059797266 0.26209587 0.081542715 -0.096232004 0.37030935 -0.02298255 0.037757475
-0.2103014 -0.12846997 0.09826313 0.1387172 -0.0070518693 0.02978051 0.034256604 -0.07490869
-0.21360059 0.09965201 -0.16324507 0.22191931 0.11465793 0.19434887 -0.09748629 0.21202466
-0.1512998 0.15704562 0.046632163 0.15741923 0.33199683 -0.036103368 0.16594069 0.110247135
-0.20732588 0.18874231 0.19788776 0.17996159 -0.27256078 0.0021663934 -0.3030496 -0.042831253
-0.36936387 0.02727547 -0.19963118 0.15162258 -0.07597373 0.1064648 0.36684883 0.050850555
-0.041710135 0.1904573 0.16111793 -0.15574649 -0.45403656 -0.24046183 -0.1850038 0.13921861
0.18459935 -0.12151439 -0.15207346 -0.22279014 -0.1887969 -0.33587354 0.053150214 0.023606693
-0.080829695 -0.09086328 0.082197055 0.033307947 -0.04179745 -0.059745073 -0.22946824 -0.008248482
-0.24464992 0.020866454 0.2968456 -0.1393028 -0.05410276 0.08174097 0.061596923 -0.076250255
-0.23296525 -0.19065188 -0.06985312 -0.25940633 -0.3858201 -0.031462654 0.32688776 0.19848067
0.34954453 0.24019712 0.24049625 0.43986422 0.21362022 -0.04766788 -0.050155237 0.17337877
0.094083965 0.11057812 -0.0675054 -0.26734167 0.09796057 -0.07283286 -0.24843562 -0.07627071
-0.045115683 0.042586982 0.09822999 -0.14601228 -0.26818457 -0.16530326 -0.034321997 -0.060528833
0.21928032 -0.091728866 0.05590656 -0.08738057 0.04751805 0.09548933 0.023845885 0.013641546
0.24421847 0.057405658 -0.18418431 0.27805883 -0.053145304 -0.08061074 0.15493765 -0.007138444
-0.10403871 -0.2162105 -0.46250835 0.11456171 0.46728644 0.34812522 -0.023563502 0.20411232
0.3568927 0.03117579 0.27762148 0.09007005 0.14001858 0.41200617 0.12791334 -0.0022729267
0.24158306 0.22568868 -0.20879094 0.42871758 0.3569696 -0.24080148 0.22651458 0.029324278
-0.37035173 -0.1289424 -0.019974204 -0.30896127 -0.45003664 -0.11465888 -0.12969936 -0.16996874
-0.25151217 0.21184786 -0.0900734 -0.12678383 0.35941482 0.33065018 -0.1329662 0.06893507
-0.1336941 0.028804278 0.31426966 0.10373722 -0.25010556 -0.171261 0.034725618 -0.31965125
0.089043885 0.16232662 0.08394725 0.07118919 0.11658342 0.2836046 0.19029558 -0.15522203
-0.11403133 -0.36741966 0.043090165 -0.008721245 0.106246956 -0.3802947 0.015449168 -0.007857227
0.13615113 0.05128582 0.27937344 -0.09686716 -0.26221225 0.072642125 0.02673693 -0.080671936
-0.08796225 0.15835136 0.21246292 -0.18415259 0.123652644 0.015988281 -0.011098192 -0.26919037
-0.24525523 -0.43251178 0.19234398 0.030214362 0.23864686 -0.046479568 0.0006823933 0.27762404
00000000: 1823 4bbe faad 4f3e 1667 c5bd bb93 a2ba
00000010: 84ae 5cbe 5344 dfbd 40d3 57be a747 5dbe
00000020: 6f39 84bc d8ed 363e adb2 3fbe fea4 d5bd
00000030: a9ad ca3d b21e 2bbe 9fe0 96be 593f 383e
00000040: d364 663c 4c5b 54bc e5a9 5e3d bff5 b0be
00000050: 67a7 39bd a7b3 1d3e 9592 573e 9947 9ebe
00000060: e9b6 3abc 52c3 c03d d88e 0a3e dcfa 233e
00000070: b1f0 32be eb7d 08be 590d 1abe 56c9 c1bd
00000080: 82bd 85be ec12 bbbe de53 e6be fcce 0cbe
00000090: 3ff3 1bbc 606e 073e a477 503e 0871 16bd
000000a0: 92a5 b6bc 95f1 c33b 6e31 863e deff a63d
000000b0: 4915 c5bd 3099 bd3e e745 bcbc 95a7 1a3d
000000c0: 4059 57be a28d 03be 2e3e c93d e20b 0e3e
000000d0: 5e13 e7bb 42f6 f33c a750 0c3d ba69 99bd
000000e0: 1dba 5abe 5a16 cc3d b729 27be d13e 633e
000000f0: c7d1 ea3d 6403 473e e4a6 c7bd fe1c 593e
00000100: 56ee 1abe 91d0 203e 5e01 3f3d 8232 213e
00000110: 7dfb a93e 20e1 13bd 5bec 293e 40c9 e13d
00000120: 3c4d 54be aa45 413e 17a3 4a3e da47 383e
00000130: 168d 8bbe 0dfa 0d3b 5129 9bbe d36f 2fbd
00000140: 431d bdbe ce70 df3c 1e6c 4cbe f342 1b3e
00000150: 1d98 9bbd 380a da3d 9cd3 bb3e ac48 503d
00000160: 3fd8 2abd 3d07 433e 19fc 243e 027c 1fbe
00000170: 7b77 e8be a03b 76be a371 3dbe 538f 0e3e
00000180: 9d07 3d3e 89dc f8bd 25b9 1bbe 1923 64be
00000190: f953 41be 9ef7 abbe 0ab4 593d d362 c13c
000001a0: 0a8a a5bd 8716 babd ee56 a83d ea6d 083d
000001b0: ce33 2bbd 40b7 74bd b9f9 6abe a424 07bc
000001c0: 8285 7abe 20f0 aa3c 25fc 973e 65a5 0ebe
000001d0: db9a 5dbd cf67 a73d 0e4d 7c3d 1829 9cbd
000001e0: 718e 6ebe 3f3a 43be 270f 8fbd e8d0 84be
000001f0: 368a c5be fcde 00bd d55d a73e 843e 4b3e
00000200: 80f7 b23e 3cf6 753e a644 763e e235 e13e
00000210: 42bf 5a3e 653f 43bd 946f 4dbd 348a 313e
00000220: 18af c03d c876 e23d 4540 8abd 02e1 88be
00000230: 8d9f c83d 6529 95bd e865 7ebe d133 9cbd
00000240: 39cb 38bd b06f 2e3d ce2c c93d 3e84 15be
00000250: 7d4f 89be 4245 29be 3995 0cbd 15ed 77bd
00000260: 058b 603e 58dc bbbd 47fe 643d 96f4 b2bd
00000270: 49a2 423d e98f c33d 7258 c33c ca80 5f3c
00000280: 6814 7a3e 3222 6b3d d09a 3cbe ba5d 8e3e
00000290: e4ae 59bd 3e17 a5bd faa7 1e3e 9ce9 e9bb
000002a0: 3f12 d5bd 4966 5dbe e5cd ecbe 549f ea3d
000002b0: 2b40 ef3e 783d b23e 3f08 c1bc d202 513e
000002c0: a4ba b63e 5f64 ff3c 6724 8e3e a576 b83d
000002d0: 0861 0f3e 79f2 d23e b7fb 023e 62f5 14bb
000002e0: 8d61 773e ef1a 673e 4bcd 55be df80 db3e
000002f0: b8c4 b63e aa94 76be 70f3 673e 7839 f03c
00000300: be9e bdbe 7a09 04be f1a0 a3bc 2c30 9ebe
00000310: 346b e6be 46d2 eabd e9cf 04be 490c 2ebe
00000320: 34c6 80be a5ee 583e 6778 b8bd 9fd3 01be
00000330: 3805 b83e fb4a a93e 4b28 08be d42d 8d3d
00000340: 1be7 08be f3f6 eb3c f4e7 a03e 2e74 d43d
00000350: d60d 80be 0b5f 2fbe 733c 0e3d 54a9 a3be
00000360: a45c b63d f338 263e 89ec ab3d a3cb 913d
00000370: 4ac3 ee3d 9f34 913e d8dc 423e 86f2 1ebe
00000380: 4289 e9bd 6e1e bcbe 507f 303d 8ee3 0ebc
00000390: 0198 d93d fdb5 c2be 821e 7d3c 99bb 00bc
000003a0: 346b 0b3e 1411 523d 090a 8f3e 4a62 c6bd
000003b0: af40 86be 65c5 943d 6807 db3c 5437 a5bd
000003c0: 8d25 b4bd dc26 223e e18f 593e 7f92 3cbe
000003d0: 993d fd3d dbf9 823c 31d5 35bc 52d3 89be
000003e0: 3024 7bbe 2f72 ddbe d2f5 443e 1c84 f73c
000003f0: d85f 743e 5c61 3ebd a4e2 323a bd24 8e3e

blocks.3.layers.1.layers.2.bias f4 [4]
0.09725257 -0.04005856 -0.049541082 0.06287979
00000000: 5b2c c73d 7214 24bd 97eb 4abd 1fc7 803d

blocks.3.layers.3.layers.2.weight f4 [4, 4, 3, 3]
-0.16058202 -0.15380046 -0.19973813 -0.34383282 0.2511549 -0.054384507 0.4484622 -0.1808655
0.24739012 -0.042620778 -0.21392077 0.3493971 0.050794836 -0.55459726 0.12423985 -0.21029337
-0.21733432 -0.17756385 -0.26291665 0.113553144 -0.054595843 -0.0494919 0.3252601 -0.04654265
0.3402207 0.24250399 -0.2873256 0.24959382 -0.042912267 -0.27087808 -0.27690357 -0.06649821
-0.06798605 -0.20473358 -0.34616223 0.09060838 0.64740396 -0.017387751 0.641237 0.41792977
0.14501455 -0.024509508 0.20251815 0.56796473 0.28245515 -0.15247719 0.57777995 0.270209
-0.1089945 -0.29308113 -0.44260117 0.14957467 0.023871131 0.1148314 0.22170344 -0.018964056
-0.16938049 0.25502437 -0.24471849 -0.11470083 0.018779157 -0.4552746 0.3453179 0.12743814
-0.36126477 -0.3081729 0.105234824 0.025907865 0.15565704 -0.15758322 -0.21611653 -0.24210879
-0.29350075 -0.05491019 0.08777989 0.14962034 0.27398363 0.463464 0.2863414 0.32284376
0.07009629 -0.0697258 -0.160929 -0.24268076 0.092941105 0.09051631 -0.26336104 0.040458575
-0.07826393 -0.088636175 0.29754922 -0.10202305 -0.13443708 -0.33196396 -0.40874526 0.048417762
0.11206946 -0.00038436145 -0.055656474 0.4220916 -0.421777 0.13076678 -0.095681734 0.21876249
-0.04940149 -0.2770371 0.22492568 0.1724824 0.10276495 0.1808127 -0.04282882 -0.2743455
-0.06135317 -0.043630607 -0.26664385 0.18283443 -0.16992022 0.2421072 0.08671056 -0.03979215
-0.24766009 -0.42811337 -0.28577605 -0.6412642 -0.16807346 -0.08256362 -0.17102563 -0.33668244
-0.0026775992 0.31885177 -0.07389109 -0.2722407 -0.074983 0.41329455 -0.15372518 0.48275176
-0.119913206 0.075762235 0.10969169 -0.5421694 0.16049905 0.06969764 -0.033114605 0.25676158
00000000: 9d6f 24be de7d 1dbe 2788 4cbe db0a b0be
00000010: 6097 803e 4ac2 5ebd d69c e53e ce34 39be
00000020: d653 7d3e 2093 2ebd 0c0e 5bbe 2de4 b23e
00000030: 3f0e 503d 16fa 0dbf 7671 fe3d 2557 57be
00000040: e38c 5ebe 4cd3 35be 039d 86be 8d8e e83d
00000050: e49f 5fbd 05b8 4abd 7e88 a63e 81a3 3ebd
00000060: 6831 ae3e f752 783e 571c 93be 8695 7f3e
00000070: c6c4 2fbd 88b0 8abe 4ec6 8dbe 3730 88bd
00000080: 453c 8bbd aea5 51be 2d3c b1be e390 b93d
00000090: 44bc 253f c270 8ebc 1c28 243f e4fa d53e
000000a0: b27e 143e 2ac8 c8bc eb60 4f3e 2366 113f
000000b0: f69d 903e fb22 1cbe 63e9 133f d658 8a3e
000000c0: 8238 dfbd bb0e 96be 9f9c e2be 1a2a 193e
000000d0: 648d c33c ba2c eb3d 3a06 633e 825a 9bbc
000000e0: 1472 2dbe 8e92 823e 7c97 7abe 45e8 eabd
000000f0: bfd6 993c c119 e9be 82cd b03e 257f 023e
00000100: b2f7 b8be d7c8 9dbe 5b85 d73d bb3c d43c
00000110: 8f64 1f3e 7f5d 21be a74d 5dbe 5eeb 77be
00000120: bb45 96be 82e9 60bd f1c5 b33d 1336 193e
00000130: 9547 8c3e 274b ed3e 579b 923e c74b a53e
00000140: a58e 8f3d 66cc 8ebd 92ca 24be 4e81 78be
00000150: e857 be3d 9d60 b93d 42d7 86be e4b7 253d
00000160: d748 a0bd e286 b5bd 5f58 983e 76f1 d0bd
00000170: e0a9 09be 2ef7 a9be 0f47 d1be b451 463d
00000180: ac84 e53d 1f84 c9b9 0bf8 63bd 641c d83e
00000190: 28f3 d7be bae7 053e c9f4 c3bd 4603 603e
000001a0: 3759 4abd cfd7 8dbe eb52 663e 3a9f 303e
000001b0: 6e76 d23d f726 393e 466d 2fbd 0377 8cbe
000001c0: 764d 7bbd 02b6 32bd 8b85 88be f338 3b3e
000001d0: 91ff 2dbe f3ea 773e 4e95 b13d 18fd 22bd
000001e0: 9b9a 7dbe ad31 dbbe 3d51 92be e429 24bf
000001f0: 731b 2cbe 1d17 a9bd 5821 2fbe a461 acbe
00000200: a97a 2fbb 8a40 a33e 3654 97bd 2263 8bbe
00000210: b090 99bd 589b d33e 226a 1dbe 3d2b f73e
00000220: 0e95 f5bd 3b29 9b3d 09a6 e03d 9dcb 0abf
00000230: dd59 243e a3bd 8e3d 2ea3 07bd 4176 833e

blocks.3.layers.3.layers.2.bias f4 [4]
-0.007149763 -0.020842824 0.18618095 0.17517993
00000000: 8f48 eabb 92be aabc 38a6 3e3e 5e62 333e
